speech_command_model.pth (torch, 63338 bytes, 14 tensors)

layer1.0.weight f4 [128, 39]
0	0xbe064169	-0.1311089
1	0x3d682ac8	0.056681424
2	0x3de10476	0.10987179
3	0xbde5efdd	-0.11227391
4	0xbde3c6d1	-0.111219056
5	0xbd66b938	-0.056328982
6	0x3d4b935b	0.049701076
7	0x3db0fc85	0.08641914
8	0x3d5108e7	0.05103388
9	0xbb553ef8	-0.0032538753
10	0x3e04ecc2	0.12980941
11	0x3d912521	0.0708716
12	0x3e333773	0.17501621
13	0x3d68912d	0.056779075
14	0x3e1e50b9	0.15460481
15	0x3e11f46a	0.14253393
16	0xbdb7017a	-0.089358285
17	0xbdb9eba0	-0.09078145
18	0x3d892b4b	0.066977106
19	0x3e0581fb	0.13037865
20	0x3b1eae8c	0.0024212925
21	0x3de936a1	0.11387373
22	0xbdc4ec28	-0.09615356
23	0xbcf324a5	-0.02968056
24	0xbc8705af	-0.016482202
25	0x3d16d635	0.036825377
26	0x3d925551	0.07145179
27	0xbb49444c	-0.0030710874
28	0x3e08f769	0.1337563
29	0x3c5e1458	0.013554655
30	0x3dc1ad8e	0.09456931
31	0x3b548eee	0.0032433826
32	0xbe15f0ac	-0.1464259
33	0x3ccee293	0.025254523
34	0xbcf6fd69	-0.030150132
35	0x3ddadfd6	0.106872246
36	0x3d460900	0.048348427
37	0x3d935dbe	0.07195614
38	0xbda59ad2	-0.0808617
39	0xbdece536	-0.11567156
40	0xbd31ccf6	-0.043408357
41	0x3d10ac2a	0.03532044
42	0xbd91c1e5	-0.071170606
43	0x3e0cacb3	0.13737755
44	0xbcc22adb	-0.023702076
45	0xbdb65f65	-0.08904914
46	0x3d810fe0	0.06301856
47	0x3df943c8	0.12171131
48	0x3dea69a1	0.11445928
49	0x3d396c65	0.04526939
50	0x3db115d3	0.08646741
51	0xbd42fd0d	-0.04760461
52	0x3dfd5251	0.12369216
53	0xbdb34b80	-0.08754635
54	0x3e0308be	0.12796304
55	0xbe09e69d	-0.13466878
56	0x3da069d7	0.07832687
57	0x3d5d7112	0.05406291
58	0xbd636dd9	-0.05552468
59	0xbd89e04d	-0.06732235
60	0x3da1b792	0.078963414
61	0xbe0fb628	-0.14034331
62	0x3d33c6a5	0.043890614
63	0x3e01867d	0.1264896
64	0x3d04d89f	0.03243315
65	0x3dd7dbcf	0.10539972
66	0xbdb7a25f	-0.08966517
67	0xbd529d06	-0.05141928
68	0xbe1b3b24	-0.15159279
69	0xbd4f93b1	-0.05067796
70	0xbcd51b0a	-0.02601387
71	0x3dcbd1dc	0.09952137
72	0xbd26338e	-0.04057651
73	0x3d09072a	0.033454098
74	0x3dc826e6	0.09773044
75	0x3d28e356	0.04123243
76	0xbd052c5d	-0.03251301
77	0xbe151c32	-0.14561537
78	0xbdfac0ee	-0.1224383
79	0xbcd0ff22	-0.025512282
80	0x3d53cd68	0.051709563
81	0xbc99634f	-0.018724112
82	0xbdc493fa	-0.09598537
83	0x3e1b0104	0.15137106
84	0xbe0752b5	-0.13215144
85	0x3cefa6c8	0.029254332
86	0x3c0b413a	0.008499438
87	0x3e1dcfee	0.1541135
88	0x3d5981d2	0.053102322
89	0x3cd47c4d	0.025938177
90	0x3c55827b	0.013031597
91	0x3dbb8271	0.09155739
92	0x3cbfe85f	0.023426233
93	0x3cf4a472	0.02986357
94	0xbdcf0117	-0.1010763
95	0xbe235b62	-0.15952829
96	0x3da7064e	0.081554994
97	0x3e318c82	0.17338756
98	0x3e3b339b	0.18281405
99	0xbdd58c55	-0.10427157
100	0xbca3cf44	-0.019996293
101	0xbd0b824d	-0.03405981
102	0xbd24ab9c	-0.040202722
103	0x3c31e088	0.010856755
104	0xbd046a98	-0.03232822
105	0x3df8582c	0.121261925
106	0x3d912f3d	0.07089088
107	0x3dec4b1c	0.115377635
108	0xbe0c1e83	-0.13683514
109	0xbddb6228	-0.10712081
110	0x3df82c96	0.12117879
111	0x3d3d85e2	0.04627026
112	0x3de401e2	0.111331716
113	0xbe34d2e2	-0.1765857
114	0xbe29b2bd	-0.1657209
115	0x3dfa29d5	0.1221501
116	0x3b43514f	0.0029803102
117	0xbdc12c80	-0.09432316
118	0x3b485413	0.003056769
119	0x39f96025	0.00047564614
120	0x3dbf6592	0.09345545
121	0x3df7f828	0.12107879
122	0x3df3afc0	0.11898756
123	0xbdd4251b	-0.1035864
124	0x3e0d9501	0.13826372
125	0xbc872700	-0.016498089
126	0x3d0ae14b	0.033906262
127	0xbdeaf121	-0.11471773
128	0xbded27d1	-0.1157986
129	0x3d42b76d	0.04753821
130	0x3dd64273	0.10461893
131	0x3d67ae73	0.056562852
132	0xbe037f24	-0.12841469
133	0x3e0add50	0.13560987
134	0xbdf9238b	-0.121649824
135	0x3d82691d	0.06367705
136	0xbe107e98	-0.14110792
137	0x3e09cb2c	0.1345641
138	0x3d65d55d	0.056111682
139	0xbd802547	-0.0625711
140	0x3d85ac3f	0.06526994
141	0xbd3ed022	-0.04658521
142	0x3d898cba	0.067162946
143	0xbd9a9fef	-0.07550036
144	0xbdb44a81	-0.08803273
145	0x3d777a12	0.06041915
146	0x3cc30c4e	0.023809578
147	0xbe1e8b55	-0.15482838
148	0x3d05bb55	0.032649357
149	0x3dc5b121	0.09652925
150	0x3c4bc234	0.012436438
151	0xbe1bc57a	-0.1521205
152	0x3ddcffa9	0.10790951
153	0x3d1eb77f	0.038749214
154	0xbd82f236	-0.06393854
155	0x3db09716	0.08622567
156	0xbddd3c3f	-0.10802507
157	0x3d45fbac	0.048335716
158	0x3e114194	0.14185172
159	0x3d97353b	0.073832
160	0x3d39c39f	0.045352574
161	0x3cf53328	0.02993162
162	0xbd8da245	-0.06915716
163	0xbd9715bc	-0.073771924
164	0xbdef25a4	-0.11677101
165	0x3e1ca838	0.15298545
166	0x3df88df8	0.121364534
167	0xbda1f294	-0.07907596
168	0xbdb5007f	-0.08837985
169	0x3da5ac06	0.080894515
170	0xbbc93c74	-0.00614124
171	0xbca1d241	-0.019753577
172	0x3dcb5679	0.09928603
173	0xbe04c88f	-0.12967132
174	0x3e02643e	0.12733552
175	0x3b993dea	0.00467657
176	0xbc70ca63	-0.01469669
177	0xbd125606	-0.03572657
178	0xbd332864	-0.04373969
179	0xbd8ff9c0	-0.07030058
180	0x3cf237ff	0.029567717
181	0x3e2fb322	0.17158177
182	0xbe31e9be	-0.17374322
183	0x3dc04100	0.09387398
184	0x3e063430	0.13105845
185	0x3cc6bf30	0.024261087
186	0x3e295dea	0.16539732
187	0x3d9e123c	0.07718322
188	0x3da5f962	0.081042066
189	0xbe0253c9	-0.12727274
190	0xbd9aa113	-0.07550254
191	0x3de4a54d	0.11164341
192	0x3b8f7689	0.004378144
193	0xbc83d140	-0.01609099
194	0x3d2c039f	0.04199564
195	0x3c6c2dcd	0.014415217
196	0xbc245f6e	-0.010032518
197	0x3aad1b99	0.0013207077
198	0xbdeb6a86	-0.11494927
199	0x3d834fc4	0.064116985
200	0x3e141d67	0.14464341
201	0x3e1b3fc3	0.15161042
202	0x3d9f59c8	0.07780796
203	0xbdefcfae	-0.11709534
204	0xbc7517d6	-0.014959296
205	0x3d8bc1dc	0.06824085
206	0xbc172bdb	-0.009226765
207	0x3db6fa3a	0.08934446
208	0xbcb3ec54	-0.021963276
209	0x3cf5e4a8	0.030016258
210	0x3d35c62f	0.044378456
211	0x3d1ed192	0.03877408
212	0xbd412ab4	-0.047159865
213	0xbe03e388	-0.12879765
214	0xbe1b66ce	-0.15175936
215	0xbe3d9407	-0.18513499
216	0xbb0f46c5	-0.002186225
217	0xbcd76bc5	-0.026296506
218	0x3d91ba74	0.07115641
219	0xbda5655e	-0.08075975
220	0xbe02eac2	-0.12784865
221	0xbdaaccc8	-0.0833984
222	0xbd26f111	-0.040757243
223	0x3dc9406b	0.0982674
224	0xbc9b7db0	-0.01898083
225	0x3d03ca82	0.03217555
226	0xbdccc456	-0.099983856
227	0x3da272f0	0.07932079
228	0x3e0f3fab	0.13989131
229	0x3dc30902	0.095232025
230	0xbdf69a41	-0.1204114
231	0xbcce4d5b	-0.02518337
232	0xbc254594	-0.0100873895
233	0x3d210a0a	0.039316215
234	0xbd3a2129	-0.04544178
235	0xbdbdfe88	-0.092770636
236	0xbe03b3bf	-0.12861536
237	0xbdaf56ee	-0.085615024
238	0xbdb14aa3	-0.08656814
239	0x3c873152	0.01650301
240	0x3db254e2	0.08707596
241	0xbdce386d	-0.10069356
242	0xbda870aa	-0.08224614
243	0xbdb87ed9	-0.09008569
244	0xbb5dd3a4	-0.0033848071
245	0x3c75ed30	0.015010163
246	0x3c502344	0.0127037205
247	0xbdb82d86	-0.08993058
248	0xbd5ee55e	-0.05441796
249	0x3ce8d2da	0.028420854
250	0xbd03c280	-0.03216791
251	0xbd24ea9f	-0.040262815
252	0x3e2c24fc	0.16810983
253	0x3d8a30b2	0.06747569
254	0x3df2e1a7	0.11859446
255	0x3dfb97f0	0.12284839

layer1.0.bias f4 [128]
0	0x3d0a2da7	0.033734944
1	0xbc525dbf	-0.012839734
2	0xbdfc73c8	-0.12326771
3	0x3e1ecca1	0.15507747
4	0xbb888efd	-0.004167436
5	0xbdc3d585	-0.0956221
6	0xbe14b071	-0.14520432
7	0x3d622b6c	0.05521719
8	0x3d5797f2	0.05263514
9	0x3bfc5d20	0.007701531
10	0x3d3a1c96	0.045437418
11	0xbd94c91a	-0.072649196
12	0x3df236d1	0.11826862
13	0xbe1eb48a	-0.15498558
14	0xbd2f6777	-0.04282328
15	0xbdbdb426	-0.09262876
16	0x3e06ce51	0.13164641
17	0x3e24dbbd	0.16099449
18	0x3c576867	0.01314745
19	0xbc4a4712	-0.012346046
20	0x3d750c93	0.059826445
21	0xbdb23d92	-0.0870315
22	0x3c65c0ad	0.014022988
23	0xbd7f29a2	-0.062295564
24	0x3e2095e7	0.15682183
25	0xbd2196d7	-0.039450493
26	0x3a9e514d	0.0012078673
27	0x3c36c0b3	0.0111543415
28	0xbbd81c6d	-0.0065951855
29	0xbd815c80	-0.06316471
30	0x3de3bf5f	0.111204855
31	0x3e0a4cfc	0.1350593
32	0xbc509aac	-0.012732189
33	0xbde1f35f	-0.110327475
34	0x3df5da80	0.12004566
35	0x3de84df5	0.11342994
36	0xbe138c85	-0.14409073
37	0x3d6298b1	0.0553214
38	0x3dad6778	0.08467001
39	0x3df467e0	0.11933875
40	0x3e0a14ed	0.13484545
41	0x3df2fce7	0.118646435
42	0xbe0452f5	-0.1292227
43	0xbd0c2ff5	-0.034225423
44	0x3d0ad688	0.033896
45	0x3dfb65e6	0.12275295
46	0x3e186c9e	0.14885184
47	0xbe1c9d6a	-0.15294424
48	0x3ce31cef	0.027723758
49	0xbde46116	-0.1115133
50	0x3e125640	0.14290714
51	0xbcaa96f5	-0.020823935
52	0x3dc04469	0.09388048
53	0x3e0e41c6	0.13892278
54	0xbc5b8450	-0.013398245
55	0x3deb48a3	0.11488464
56	0xbe014a1e	-0.1262593
57	0xbdcdc314	-0.10046974
58	0xbdffe281	-0.12494374
59	0xbe22dbd0	-0.15904164
60	0x3e1275f4	0.14302808
61	0xbe04dfc1	-0.1297598
62	0x3e0438df	0.1291232
63	0xbdd7f332	-0.10544433
64	0x3e20e243	0.15711312
65	0x3dfbd986	0.12297349
66	0x3dd7ce29	0.10537369
67	0xbd4f8bbf	-0.05067038
68	0x3dc9516f	0.09829985
69	0xbdbf3f03	-0.093381904
70	0x3e10b1e8	0.14130366
71	0x3e1473ad	0.14497252
72	0xbceeaa6f	-0.029134003
73	0xbd889fc9	-0.066711016
74	0x3da2a258	0.07941121
75	0xbe10f003	-0.14154057
76	0x3c6905bb	0.014222558
77	0xbdc1cd41	-0.09462977
78	0x3d0acdf9	0.033887837
79	0xbc066ef8	-0.008205168
80	0xbe08f8c5	-0.13376148
81	0xbdd6c966	-0.104876325
82	0xbd44ff2f	-0.048094925
83	0xbd6f49d3	-0.058420014
84	0xbbf1ccac	-0.007379135
85	0xbd08805f	-0.03332555
86	0xbda59f60	-0.08087039
87	0x3e1fb863	0.15597682
88	0xbe14afcc	-0.14520186
89	0xbd8d0c4c	-0.06887111
90	0x3d824034	0.06359902
91	0x3cdfeceb	0.027334651
92	0x3d6097b8	0.05483219
93	0x3deef9d8	0.11668748
94	0x3e102f43	0.14080529
95	0x3d4f9bfd	0.05068587
96	0x3d8a1c48	0.067436755
97	0x3e22f2c1	0.15912916
98	0x3d0e3363	0.034716975
99	0xbd71c0ac	-0.059021637
100	0x3be24162	0.006904767
101	0xbd8c7f89	-0.06860263
102	0x3e0c0b4b	0.13676183
103	0xbdac1284	-0.08401969
104	0xbd09edaf	-0.03367394
105	0x3cf50d9a	0.029913712
106	0x3e1ee46a	0.1551682
107	0xbdc86a58	-0.097859085
108	0xbe080d7d	-0.13286395
109	0x3d0f2d59	0.034955356
110	0xbdd24221	-0.10266519
111	0x3d5cb771	0.05388588
112	0x3e100c6a	0.14067236
113	0xbd95122f	-0.07278859
114	0x3d4d843e	0.050174944
115	0x3e10a632	0.14125898
116	0xbd138bb5	-0.036021907
117	0x3d8fb659	0.07017202
118	0x3bdaa1ea	0.0066721337
119	0xbe04cf90	-0.12969804
120	0x3d8e04de	0.06934522
121	0x3de9512b	0.11392435
122	0xbdc64907	-0.096818976
123	0x3c4b8308	0.012421377
124	0xbd8c537b	-0.0685186
125	0x3d7dff58	0.062011093
126	0xbe1f6cac	-0.15568799
127	0xbd9879f7	-0.07445138

layer1.1.weight f4 [128]
0	0x3f7b177c	0.9808271
1	0x3f80dee7	1.0068024
2	0x3f7e004a	0.9921919
3	0x3f7aa92f	0.97914404
4	0x3f77c218	0.9678054
5	0x3f800093	1.0000175
6	0x3f7c2394	0.9849179
7	0x3f844a19	1.0335113
8	0x3f8192c6	1.0122917
9	0x3f81a3db	1.012813
10	0x3f7a74dd	0.9783457
11	0x3f79d60b	0.9759223
12	0x3f8157a9	1.0104877
13	0x3f815692	1.0104544
14	0x3f7e14de	0.9925059
15	0x3f83c028	1.0293016
16	0x3f80b76b	1.0055975
17	0x3f801e3f	1.000923
18	0x3f803021	1.0014688
19	0x3f7871ae	0.9704846
20	0x3f8070df	1.0034446
21	0x3f794c76	0.97382295
22	0x3f7a7f45	0.9785045
23	0x3f7d9824	0.99060273
24	0x3f799f43	0.9750864
25	0x3f7bb1e3	0.9831831
26	0x3f7c7092	0.9860927
27	0x3f79d4df	0.9759044
28	0x3f84482d	1.0334526
29	0x3f7c2737	0.9849734
30	0x3f7df459	0.9920097
31	0x3f83c8d9	1.0295669
32	0x3f7c9aaf	0.9867353
33	0x3f805437	1.00257
34	0x3f8349f5	1.0256945
35	0x3f796087	0.97412914
36	0x3f808cf7	1.0043019
37	0x3f7c06a8	0.98447657
38	0x3f7c7246	0.9861187
39	0x3f7bfc51	0.9843188
40	0x3f7cb09c	0.98706985
41	0x3f7ae008	0.97998095
42	0x3f7ed0a2	0.995371
43	0x3f834bf7	1.0257558
44	0x3f7ee117	0.9956221
45	0x3f820c65	1.0160033
46	0x3f79671e	0.9742297
47	0x3f83cdb0	1.0297146
48	0x3f7ceb34	0.9879639
49	0x3f7ac718	0.9796004
50	0x3f7de889	0.99182945
51	0x3f7b78d8	0.9823127
52	0x3f83745d	1.0269886
53	0x3f812b9b	1.0091432
54	0x3f7ebf00	0.9951019
55	0x3f7b3da2	0.9814092
56	0x3f7ede71	0.9955817
57	0x3f81cfe6	1.014157
58	0x3f84214a	1.0322659
59	0x3f83150a	1.0240796
60	0x3f83f71e	1.0309789
61	0x3f7b8ceb	0.982619
62	0x3f830d79	1.0238487
63	0x3f7aa2c5	0.97904617
64	0x3f802f3c	1.0014415
65	0x3f83c813	1.0295433
66	0x3f7ae219	0.9800125
67	0x3f7eae1d	0.99484426
68	0x3f7f1c1e	0.9965228
69	0x3f8134b6	1.0094211
70	0x3f7cadc4	0.98702645
71	0x3f800831	1.00025
72	0x3f7c16c2	0.98472226
73	0x3f7cdf8b	0.987786
74	0x3f7c1dbb	0.98482865
75	0x3f7e03ae	0.99224365
76	0x3f81abab	1.0130514
77	0x3f80468f	1.0021533
78	0x3f838df9	1.0277702
79	0x3f7bd6ba	0.9837452
80	0x3f84792c	1.0349479
81	0x3f7ef685	0.9959491
82	0x3f7e2a3c	0.99283195
83	0x3f7fb55f	0.99886125
84	0x3f7fb341	0.99882895
85	0x3f7ef96b	0.9959933
86	0x3f7a8a71	0.97867495
87	0x3f7c9381	0.98662573
88	0x3f80de4c	1.006784
89	0x3f7dffb6	0.9921831
90	0x3f7b62e6	0.9819778
91	0x3f7bb6b4	0.9832566
92	0x3f798a05	0.97476226
93	0x3f7967f1	0.97424227
94	0x3f7f3454	0.9968922
95	0x3f81265d	1.0089833
96	0x3f797ed7	0.9745917
97	0x3f822f2a	1.0170643
98	0x3f82d402	1.022095
99	0x3f8088b5	1.004172
100	0x3f8297aa	1.0202534
101	0x3f82c4d7	1.0216321
102	0x3f7c554a	0.9856764
103	0x3f7d88a7	0.9903664
104	0x3f829148	1.0200586
105	0x3f811cf3	1.008696
106	0x3f7aec45	0.9801677
107	0x3f82ebd3	1.0228218
108	0x3f7ce7bc	0.987911
109	0x3f804f2f	1.0024165
110	0x3f7eda5d	0.99551946
111	0x3f8285d3	1.019709
112	0x3f79aa18	0.9752517
113	0x3f7a7656	0.97836816
114	0x3f82f4b6	1.023093
115	0x3f80ba40	1.0056839
116	0x3f8110e9	1.0083286
117	0x3f829133	1.0200561
118	0x3f7d8e04	0.99044824
119	0x3f829180	1.0200653
120	0x3f80ff4d	1.0077912
121	0x3f824cb9	1.0179664
122	0x3f808b5d	1.004253
123	0x3f841c25	1.0321089
124	0x3f7965c2	0.97420895
125	0x3f803211	1.0015279
126	0x3f7e6394	0.99370694
127	0x3f7f2208	0.996613

layer1.1.bias f4 [128]
0	0xbcb1f67c	-0.021723978
1	0x3aa823c9	0.0012828048
2	0xbc5d1b64	-0.0134953
3	0xbce0bc2b	-0.027433475
4	0xbc02db41	-0.0079868445
5	0x3cfda0e4	0.030960508
6	0xbc65e031	-0.014030502
7	0x3d0e55a3	0.03474964
8	0xb9c74ca4	-0.0003801334
9	0x3a5e8d6d	0.0008489702
10	0xb82dde1e	-4.1453277e-05
11	0xbcd82ff7	-0.026390059
12	0xbbe77b45	-0.0070642554
13	0x3c8ed89e	0.017437275
14	0xbbf28b6c	-0.0074018743
15	0x3caae730	0.020862192
16	0xbbabd5e8	-0.0052440055
17	0x3b97ac25	0.0046286755
18	0xbbd63192	-0.006536671
19	0xbce40447	-0.02783407
20	0xbcae2aba	-0.021260608
21	0xbbccc64f	-0.006249226
22	0xbc1c82bd	-0.009552655
23	0xbb4a74c3	-0.003089235
24	0xbc2d84a9	-0.010590711
25	0xbc337943	-0.010954204
26	0xbbe4033e	-0.0069583943
27	0xbcf20c59	-0.029546903
28	0x3cb052c9	0.02152385
29	0xbca83462	-0.02053279
30	0xbc2b69be	-0.010462223
31	0x3cd47216	0.025933307
32	0xbc14e618	-0.009088062
33	0x3c58ea44	0.013239447
34	0x3cf47fe8	0.029846147
35	0xbc9a72d6	-0.018853586
36	0x3c25fbe6	0.010130858
37	0xbc9f1ffb	-0.01942443
38	0xb9ef7669	-0.00045673855
39	0x3a115c8a	0.00055451004
40	0xbc35b2b2	-0.011089968
41	0xbcaee0f3	-0.021347499
42	0xbbfd6138	-0.0077325366
43	0xbc0cde57	-0.008597932
44	0x3c2b2465	0.010445689
45	0xbc7304ae	-0.014832659
46	0xbcdfe447	-0.02733053
47	0x3cf19de4	0.029494233
48	0xbc1099c6	-0.008825725
49	0xbc8c42f7	-0.017121775
50	0x3b151ad3	0.0022751584
51	0xbcaa6195	-0.020798484
52	0x3c665f71	0.014060841
53	0xbc9103cc	-0.017702006
54	0xbc233c03	-0.009963038
55	0xbced6302	-0.028977875
56	0x3b359d5e	0.0027712206
57	0xbb4f9ace	-0.0031677964
58	0x3ccec17b	0.025238743
59	0x3ceec161	0.029144945
60	0x3ce7318b	0.028221866
61	0xbc737d8e	-0.014861478
62	0x3c1abff8	0.009445183
63	0x3c6be850	0.014398649
64	0xbc2cb2b1	-0.01054065
65	0xbbf43f98	-0.00745387
66	0xbceb738b	-0.028741619
67	0xba93ff39	-0.0011291272
68	0x3ba9f9fe	0.005187272
69	0xba50e398	-0.00079684844
70	0xbc46befe	-0.012130497
71	0x3c0f20d0	0.00873585
72	0xbc4091e8	-0.011753537
73	0xbbe25b45	-0.006907853
74	0x3c7a6f96	0.015285393
75	0xbca07d20	-0.019590914
76	0x3c00bfd6	0.007858237
77	0xbc23c31d	-0.009995249
78	0x3b21d233	0.002469194
79	0xbc327ae9	-0.010893562
80	0x3cf904ea	0.030397851
81	0x3c8fb03f	0.017540095
82	0xbca5b89d	-0.020229632
83	0xba5d9198	-0.0008452176
84	0x3af7493e	0.0018866432
85	0x3a8de6c5	0.0010826221
86	0xbcc2f6a1	-0.023799242
87	0xbc8bfec4	-0.017089255
88	0x3ce9f7eb	0.0285606
89	0x3cbf15fb	0.02332591
90	0xbc354eca	-0.011066148
91	0xbbbd6cdd	-0.0057808
92	0xbbd749ec	-0.0065700915
93	0xbc9135fb	-0.017725935
94	0xbc3ebac7	-0.011641211
95	0x3bda3cd0	0.0066600814
96	0xbcae1884	-0.021251924
97	0x3cf13dc0	0.02944839
98	0xbb71344a	-0.0036804848
99	0x3c683b8a	0.0141743515
100	0x3ca72557	0.020403547
101	0x3c8c58ae	0.01713213
102	0xbc073a7f	-0.008253693
103	0xbc3e81ec	-0.0116276555
104	0x3c50968d	0.012731207
105	0xbca63f21	-0.020293774
106	0x3af36536	0.0018569592
107	0x3b139ede	0.0022525112
108	0xbc72ab2f	-0.014811321
109	0xbcc60dd7	-0.024176521
110	0xbba8805e	-0.0051422557
111	0x3c912970	0.017719954
112	0xbd0a55fa	-0.0337734
113	0xbb71b973	-0.0036884218
114	0x3b422988	0.0029626805
115	0x3c9908b0	0.0186809
116	0xbc50e4f9	-0.012749904
117	0x3bca21a5	0.0061685615
118	0xbc34d029	-0.011035957
119	0x3cd9a5fd	0.026568407
120	0x3bdebcfa	0.00679743
121	0x3c36218f	0.011116399
122	0x3cc21c83	0.023695236
123	0x3c9ea73c	0.019366853
124	0xbc94ac6a	-0.01814862
125	0x3c8c7fb5	0.01715074
126	0x3c805d31	0.015669437
127	0x3ca20303	0.019776827

layer1.1.running_mean f4 [128]
0	0x42b4a74a	90.32674
1	0x429204b4	73.009186
2	0x429eef80	79.46777
3	0x427e7c79	63.621555
4	0x429e1cf6	79.056564
5	0xc1866bf9	-16.802721
6	0x4112d433	9.176806
7	0x4223541a	40.83213
8	0xc231088f	-44.258358
9	0x412bec92	10.745256
10	0xc2916ae6	-72.708786
11	0x42834a08	65.64459
12	0x423db366	47.425194
13	0xc1121e1f	-9.132354
14	0x3fdfe9a6	1.7493179
15	0x41b36daa	22.428547
16	0x42a83bc5	84.11674
17	0x42502946	52.040306
18	0x41e0dce9	28.107866
19	0xc2622937	-56.54025
20	0x42253b4c	41.307907
21	0xc23399b7	-44.900112
22	0xc2af99cf	-87.80041
23	0xc2902fd6	-72.09343
24	0xc277756e	-61.864677
25	0x42559f02	53.40528
26	0x42813608	64.60553
27	0x42241800	41.023438
28	0x411080ca	9.031443
29	0xc2c4f450	-98.47717
30	0xc264885d	-57.133167
31	0xc16c5b16	-14.772238
32	0x42e455ca	114.16756
33	0xbf9d38f1	-1.2283002
34	0x41dbf685	27.49537
35	0xc29160ec	-72.6893
36	0xc13df36c	-11.871929
37	0xc217b567	-37.92715
38	0x426b8d95	58.888264
39	0xc2901754	-72.04556
40	0x4259c49e	54.44201
41	0xc28a37ed	-69.10923
42	0x41e7a58a	28.95583
43	0xc195919d	-18.6961
44	0x4285e143	66.939964
45	0xc063d517	-3.559881
46	0x424e3f0b	51.561565
47	0x4115b842	9.357485
48	0xc2d39dd4	-105.80826
49	0xc23174d6	-44.364098
50	0xc2839801	-65.79688
51	0x409a1b42	4.8158274
52	0x42591373	54.268993
53	0x40be99c4	5.95627
54	0xc209a8ae	-34.414726
55	0x42d53389	106.600655
56	0xc2c53366	-98.60039
57	0xc1e1044e	-28.127102
58	0x4281d8eb	64.92367
59	0x40e81f70	7.2538376
60	0xc1c2a02e	-24.328213
61	0x42b5f9fa	90.988235
62	0x42398839	46.38303
63	0xc1d3dee9	-26.483843
64	0x427b334f	62.800106
65	0xc26f5987	-59.83743
66	0xc28be9ed	-69.95689
67	0xc286fcce	-67.49376
68	0xc1ab96dc	-21.448662
69	0xbfdb6ea9	-1.7143146
70	0x429e5650	79.16858
71	0x4291fe30	72.99646
72	0x427c51a8	63.079742
73	0x42851a52	66.55141
74	0x42bda0ec	94.8143
75	0xc18dc777	-17.722395
76	0x4223985d	40.898792
77	0x41c2fc43	24.373175
78	0x42060c1b	33.51182
79	0xc28b601b	-69.687706
80	0x3f15ef4c	0.58568263
81	0xc2d5c4c0	-106.88428
82	0xc28b9a01	-69.80079
83	0x3deecf25	0.116606034
84	0xc1aebfc5	-21.843637
85	0xc2d4db66	-106.42851
86	0x425607bd	53.507557
87	0xc2061b16	-33.52645
88	0xc091c892	-4.5557337
89	0xc2a6530f	-83.162224
90	0xc2138501	-36.879887
91	0x42946377	74.19427
92	0x428bebb2	69.96034
93	0xc15a9503	-13.66138
94	0x4222cefb	40.70213
95	0xc15f714e	-13.965162
96	0xc27e2df2	-63.54487
97	0x42105604	36.084
98	0xc121c784	-10.11121
99	0xc29bbebb	-77.87252
100	0x41ef862a	29.94051
101	0x42932022	73.56276
102	0xc2b64e9b	-91.15353
103	0x42e49f6d	114.31138
104	0x42842348	66.06891
105	0xc2de9a12	-111.30092
106	0xc25ac1ef	-54.68939
107	0x42366fd3	45.609203
108	0xc23636cf	-45.553524
109	0xc2c5ad97	-98.83904
110	0xc2958743	-74.76418
111	0xc1348a4b	-11.283763
112	0x42169064	37.641006
113	0x411a3e5d	9.640225
114	0x427d86ed	63.381763
115	0xc17e0afe	-15.877684
116	0x42a52a0b	82.582115
117	0x42710cdc	60.262558
118	0x41674ebb	14.456721
119	0x4208c6d8	34.194183
120	0x4094ee3d	4.654082
121	0x40006758	2.0063076
122	0x423614a6	45.520164
123	0x416149e4	14.08054
124	0xc2a9c24f	-84.87951
125	0xc2c00ac3	-96.02102
126	0xc2461d12	-49.52839
127	0xc289ea1d	-68.95725

layer1.1.running_var f4 [128]
0	0x41c0d77b	24.105215
1	0x41326ced	11.151593
2	0x4117317d	9.449582
3	0x4101ba73	8.10802
4	0x416a47be	14.642515
5	0x3fa0ac1f	1.2552527
6	0x4013fd5c	2.3123388
7	0x408c5a05	4.3859887
8	0x40207ecb	2.5077388
9	0x3ff3106a	1.8989384
10	0x4172e7ae	15.181562
11	0x41866915	16.80131
12	0x407c3971	3.941006
13	0x3f6834d4	0.9070561
14	0x3fc140e4	1.5097928
15	0x3fcfd5cd	1.6237122
16	0x4186f387	16.86891
17	0x40c1916b	6.049001
18	0x408c880b	4.391607
19	0x4122f1cc	10.184032
20	0x4106a6bc	8.415707
21	0x408fb76e	4.4911413
22	0x41b2df82	22.359135
23	0x418676a8	16.807938
24	0x410e0755	8.87679
25	0x41497405	12.590825
26	0x41550542	13.313784
27	0x410400e9	8.250222
28	0x408cee84	4.4041157
29	0x41e820b4	29.015968
30	0x40dc8ee5	6.892443
31	0x406a1e5c	3.658103
32	0x41f11cf2	30.139133
33	0x3f51a49b	0.81891793
34	0x406efaa8	3.7340488
35	0x410c7e1c	8.780788
36	0x4030964f	2.759174
37	0x40f266b0	7.575035
38	0x419e93a6	19.822094
39	0x41b70022	22.875065
40	0x40d41b18	6.6283073
41	0x41060035	8.375051
42	0x4103080e	8.189466
43	0x402d052a	2.7034402
44	0x41694b3a	14.580866
45	0x3fefc651	1.8732396
46	0x4051ece8	3.2800846
47	0x4005612f	2.0840566
48	0x421421e4	37.033096
49	0x40a7ea03	5.247316
50	0x4108522a	8.52006
51	0x3fccb411	1.5992452
52	0x40d8cca2	6.7749796
53	0x3f53a312	0.826707
54	0x404ba605	3.182008
55	0x4205d848	33.461212
56	0x41febb9a	31.841602
57	0x4018e0df	2.388725
58	0x413bd37b	11.739131
59	0x4032bbf5	2.792722
60	0x40307fa4	2.7577906
61	0x41ad72de	21.681087
62	0x409b2bc1	4.849091
63	0x40a4ec3b	5.1538367
64	0x4161fb91	14.123918
65	0x40dcbc28	6.8979683
66	0x4152417f	13.14099
67	0x4115cc25	9.36234
68	0x3ff39765	1.9030577
69	0x4042fbb9	3.046614
70	0x41c19efa	24.202625
71	0x41ca22e7	25.267042
72	0x40dcd41f	6.9008937
73	0x4132f760	11.185394
74	0x418c5805	17.542978
75	0x41101c25	9.006871
76	0x4138c31c	11.547634
77	0x400c7765	2.1947873
78	0x40287d59	2.6326506
79	0x413318cc	11.193554
80	0x3fa5db86	1.2957618
81	0x421d7d8e	39.372612
82	0x4178ceb5	15.550466
83	0x3f708ae3	0.93961924
84	0x401d186d	2.4546158
85	0x4214f32b	37.23747
86	0x415d85b7	13.845145
87	0x4044c7ec	3.0747023
88	0x404468e8	3.068903
89	0x41c6ea13	24.864294
90	0x410ccaba	8.799494
91	0x419441e0	18.532166
92	0x410e1a60	8.881439
93	0x4014f4ac	2.3274336
94	0x406b0d14	3.6726732
95	0x3fc823bb	1.5635904
96	0x417211ec	15.129375
97	0x406ad329	3.6691382
98	0x3fa9f620	1.3278236
99	0x413e9c74	11.913197
100	0x40e21599	7.0651364
101	0x41544617	13.267112
102	0x41f5b918	30.715378
103	0x420072cd	32.11211
104	0x4123807f	10.218871
105	0x420810e9	34.016514
106	0x409c5540	4.8854065
107	0x410684a5	8.407384
108	0x4093c869	4.618214
109	0x41b72f35	22.89805
110	0x417db2b8	15.8561325
111	0x3ffc9a4f	1.9734591
112	0x40e077f2	7.014642
113	0x3f722a85	0.9459613
114	0x4137b0be	11.48065
115	0x3fb4d8be	1.4128644
116	0x41612ad3	14.072955
117	0x4192c117	18.344282
118	0x40112200	2.2677002
119	0x409457f1	4.635735
120	0x4073320e	3.79993
121	0x3eccbbd8	0.39987063
122	0x40a2d663	5.0886703
123	0x40111797	2.2670648
124	0x41426d7a	12.151728
125	0x41cb3fbe	25.406124
126	0x4050506a	3.254908
127	0x40f80578	7.7506676

layer2.0.weight f4 [64, 128]
0	0xbda8f3fc	-0.08249661
1	0x3b3239f7	0.0027195194
2	0xbd3147b1	-0.04328126
3	0xbb838655	-0.0040138164
4	0xbc519ab0	-0.012793228
5	0xbd1ff3ec	-0.03905098
6	0x3c03bb88	0.008040316
7	0xbdbfe4e7	-0.093698315
8	0xbdc9b02c	-0.09848055
9	0xbc1f5ca7	-0.00972668
10	0xbcc39ccd	-0.02387848
11	0x3db285af	0.08716904
12	0xbca39f42	-0.019973401
13	0x3c568db4	0.013095308
14	0xbc140392	-0.009034054
15	0xbd8055ef	-0.062663905
16	0xbcb1c5fc	-0.021700852
17	0xbb821947	-0.0039702985
18	0x3ce04974	0.027378775
19	0x3d5cd931	0.053918067
20	0x3d529e8d	0.051420737
21	0x3cf0978a	0.029369134
22	0x3d266019	0.04061899
23	0x3d81018b	0.062991224
24	0xba488f04	-0.00076507055
25	0xbd7efa58	-0.062250465
26	0x3c05dc0f	0.008170142
27	0x3db12521	0.0864966
28	0x3ce7bb77	0.028287632
29	0xbcf3d52e	-0.029764738
30	0xbca40988	-0.020024076
31	0xbd844786	-0.064589545
32	0xbcaeb013	-0.021324193
33	0xbb4a669a	-0.003088391
34	0xbd2a5c6c	-0.041592047
35	0x3cf01da0	0.029311001
36	0x3d47170b	0.04860596
37	0x3d751fe9	0.059844885
38	0x3cf46667	0.029833985
39	0xbd945fd1	-0.07244838
40	0xbc0eff86	-0.008727914
41	0xbd7fadeb	-0.06242172
42	0x3d3f6117	0.04672345
43	0xbd84dc0a	-0.064872816
44	0xbd676973	-0.05649705
45	0x3db1a0af	0.08673226
46	0xbd8b75e8	-0.06809598
47	0xbcae2f0d	-0.02126267
48	0xbb3960c3	-0.0028286434
49	0xbda655d8	-0.08121842
50	0x3dad26ff	0.084547035
51	0xbc01bb0b	-0.00791813
52	0x3d8bf71c	0.06834242
53	0xbd1fdd9a	-0.039029695
54	0xbc73ea07	-0.014887339
55	0xbd903401	-0.07041169
56	0x3d8d992a	0.06913979
57	0xbc94d523	-0.018168038
58	0xbd525a7e	-0.05135583
59	0x3d770ab8	0.060312957
60	0x3d082458	0.033237785
61	0xbc58c188	-0.013229735
62	0xbd587f3f	-0.052855726
63	0xbd12076b	-0.035651606
64	0x3dc459a7	0.09587412
65	0x3aa96616	0.0012924101
66	0x3d946217	0.07245272
67	0xbd895419	-0.067054935
68	0xbbb48231	-0.005508684
69	0xbcff85f3	-0.031191802
70	0xbd13fa65	-0.036127467
71	0x3d71838c	0.058963344
72	0xbcccaf7e	-0.024986025
73	0xba8b716c	-0.0010638661
74	0x3dae65c2	0.085155025
75	0xbd576b89	-0.052592788
76	0xbda206a8	-0.07911426
77	0x3c193188	0.009350188
78	0x3c9216d0	0.017833143
79	0x3d439c80	0.047756672
80	0x3bca74e4	0.006178485
81	0xbd528078	-0.05139205
82	0x3b992db4	0.0046746377
83	0x3dab92cd	0.083776094
84	0x3d30c7c7	0.043159273
85	0xbaaa170f	-0.0012976843
86	0xbd66d777	-0.056357827
87	0xbda0ec7f	-0.07857608
88	0xbd8a1665	-0.06742553
89	0xbd85779f	-0.065169565
90	0x3cb0f0ab	0.021599134
91	0xbcfc8b22	-0.030828062
92	0x3bc3c638	0.0059745573
93	0xbcd076f7	-0.025447352
94	0x3c95857f	0.018252132
95	0x3d30acb5	0.043133456
96	0xbd420e47	-0.047376897
97	0x3d477a04	0.048700348
98	0x3d0b2267	0.033968356
99	0x3d296e4f	0.041364964
100	0x3c9a6973	0.01884911
101	0x3dd42768	0.10359079
102	0x3cd8c02c	0.026458822
103	0x3d2aeed0	0.041731656
104	0xbd878a41	-0.06618167
105	0xbcf273f4	-0.029596306
106	0x3b772c75	0.0037715707
107	0x3c39a115	0.011329909
108	0xbd0c4621	-0.034246568
109	0x3ccd3f2b	0.025054535
110	0x3d8533c7	0.06504016
111	0xbd9b3353	-0.07578149
112	0xbd044cd0	-0.032299817
113	0xbd04d37d	-0.032428253
114	0x3de1ef6c	0.11031994
115	0x3d334cc1	0.04377437
116	0x3d87b841	0.066269405
117	0xbcf50a27	-0.029912068
118	0x3d5a7e85	0.053343315
119	0x3d9d032c	0.076666206
120	0x3d527087	0.051376846
121	0x3d02cfa9	0.03193632
122	0x3c8fa3cc	0.01753416
123	0x3dd63903	0.10460093
124	0xbb9445ee	-0.004524938
125	0x3c180437	0.009278349
126	0xbd6c1c22	-0.057644017
127	0xbd27ede7	-0.040998366
128	0x3d889f2a	0.06670983
129	0xbc908345	-0.01764072
130	0xbb54ca39	-0.0032469167
131	0x3d74aba0	0.059733987
132	0xbd62dc14	-0.055385664
133	0x3d15dd27	0.03658786
134	0x3d76db35	0.060267646
135	0xbcc6b61a	-0.024256755
136	0xbd80ae2b	-0.0628322
137	0xbdaa8da3	-0.08327796
138	0xbd31852d	-0.043339897
139	0x3d93501d	0.07193015
140	0xbccfec30	-0.025381178
141	0x3dc91e75	0.09820262
142	0xbd7fac9a	-0.062420465
143	0xbd8ef9c6	-0.06981234
144	0xbdc26588	-0.09492022
145	0xbc951ab6	-0.018201213
146	0x3b8bd8be	0.004267781
147	0x3d8eb8b0	0.0696882
148	0x3ce80a8d	0.028325344
149	0xbd771436	-0.06032201
150	0x3c10a85b	0.008829202
151	0x3d660985	0.056161422
152	0xbda7ebad	-0.081992485
153	0x3d0b0aaa	0.033945717
154	0xbd6e13bf	-0.0581243
155	0x3d4c151e	0.049824826
156	0xbddf307a	-0.10897918
157	0x3c8da284	0.017289408
158	0xbd65d7f7	-0.056114163
159	0xbc79b757	-0.0152414655
160	0xbdabedab	-0.08394941
161	0xbb415707	-0.0029501335
162	0x3cc3ed4e	0.023916867
163	0x3d827bc5	0.063712634
164	0xbbd3c37a	-0.0064625116
165	0x3dd1dc6b	0.102471195
166	0x3d856218	0.065128505
167	0x3dc1bbe8	0.094596684
168	0xbc2b3e37	-0.010451845
169	0xbd57c098	-0.052673906
170	0x3cafbab7	0.021451337
171	0xbcca37aa	-0.024684746
172	0x3d8b6a4b	0.06807383
173	0x3d8c3614	0.06846252
174	0xbd012dee	-0.031537943
175	0x3d34d59b	0.044149023
176	0xbd763907	-0.06011298
177	0xbd0991e9	-0.033586416
178	0xbd3560e5	-0.04428186
179	0xbcdd2115	-0.026993314
180	0x3d8f83db	0.07007571
181	0xbd64081c	-0.055671796
182	0xbd92ef0b	-0.071745
183	0xbdb2b133	-0.08725204
184	0xbd967b77	-0.07347768
185	0xbcd399fd	-0.025830263
186	0xbd6f44b4	-0.05841513
187	0xbd912872	-0.070877925
188	0x3d0e9f50	0.0348199
189	0x3d5473b0	0.05186814
190	0x39f8f19f	0.00047482268
191	0x3d846438	0.06464428
192	0x3d85bc58	0.06530064
193	0xbc7a3641	-0.015271724
194	0xbc6a2039	-0.014289909
195	0x3d3c9265	0.04603805
196	0x3d60917e	0.054826252
197	0x3dd35da3	0.10320594
198	0xbc924315	-0.017854253
199	0xbdc47ea3	-0.095944665
200	0x3d19db45	0.037562627
201	0x3c57e52c	0.013177197
202	0xbd55a62d	-0.05216043
203	0xbd80a7cd	-0.062820055
204	0x3c366501	0.01113248
205	0x3d99a7dd	0.075027205
206	0x3d1f7dc9	0.038938317
207	0xbbc9dc62	-0.006160305
208	0xbd43703c	-0.047714457
209	0x3d1d8985	0.038461227
210	0x3d8b9a09	0.06816489
211	0x3cf74ba3	0.030187434
212	0x3cfdb6c6	0.030970942
213	0xbcca1852	-0.0246698
214	0xbbd43979	-0.006476578
215	0xbc80e0b3	-0.015732145
216	0x3d6d9628	0.05800453
217	0x3d9dc09d	0.07702754
218	0xbd9e85a4	-0.07740334
219	0xbd81a363	-0.06329992
220	0xbcd4a49c	-0.025957398
221	0xbd328366	-0.043582343
222	0xbda42c20	-0.08016229
223	0xbcbbbd16	-0.022917312
224	0xbd8efcee	-0.06981836
225	0x3b56115c	0.0032664156
226	0xbc7fa86b	-0.015604119
227	0x3dc3dc7d	0.09563539
228	0xbd8930af	-0.06698739
229	0xbcbdde9f	-0.023177443
230	0x3d7117eb	0.0588607
231	0xbbd48c81	-0.006486476
232	0x3c106ef5	0.008815517
233	0x3d831a95	0.064015545
234	0xbd0cba12	-0.034357138
235	0xbb927e72	-0.00447064
236	0x3c01ca60	0.007921785
237	0x3d2632ae	0.040575676
238	0x3d55723b	0.05211089
239	0xbd95c83d	-0.07313583
240	0x3d82c2da	0.06384821
241	0x3d9f5c34	0.07781258
242	0xbd6abd80	-0.057309628
243	0x3d3d6d5f	0.046246883
244	0xbd2efbc2	-0.042720564
245	0xbd8d0df7	-0.06887429
246	0xbc5a28d3	-0.013315397
247	0xbcd9d634	-0.026591398
248	0x3cd3a9ff	0.025837896
249	0xbdb137a4	-0.08653191
250	0x3acdd84a	0.0015704718
251	0x3c6ba98e	0.014383687
252	0x3d937206	0.071994826
253	0xbc85105f	-0.016243158
254	0xbce617f5	-0.028087595
255	0xbb1a6f2d	-0.00235648

layer2.0.bias f4 [64]
0	0x3d593e8d	0.05303817
1	0x3db260c7	0.08709865
2	0x3da51950	0.080614686
3	0x3d94183b	0.07231184
4	0xbd18b38a	-0.037280597
5	0xbd2a4b4b	-0.04157571
6	0xbcebf7bb	-0.02880465
7	0x3c8ba185	0.017044792
8	0xbd4da6ae	-0.050207786
9	0x3d91932d	0.0710815
10	0x3b02f612	0.0019983095
11	0x3d2c41ee	0.042055063
12	0xbb4832d5	-0.0030547876
13	0xbd9738c8	-0.07383877
14	0x3b447eaf	0.0029982736
15	0x3d1a6144	0.037690416
16	0xbda7de37	-0.08196681
17	0x3becb47d	0.0072236643
18	0x3d769937	0.06020471
19	0xbd24fb32	-0.04027862
20	0xbd302590	-0.043004572
21	0xbdadb68b	-0.08482083
22	0x3d8cebfb	0.06880947
23	0xbd873c77	-0.0660333
24	0x39dbd78a	0.00041931524
25	0x3d1d2bf0	0.03837198
26	0x3d1028ef	0.035195287
27	0x3ce238f6	0.027615052
28	0xbc0ac563	-0.008469912
29	0x3c0a5a3f	0.008444368
30	0x3d4dd4ff	0.050251957
31	0xbd806242	-0.06268741
32	0xbd267493	-0.040638518
33	0xbda1e4db	-0.07904979
34	0xbdaf0f39	-0.08547825
35	0xbd566848	-0.052345544
36	0x3b16982b	0.0022978883
37	0xbd9d49c3	-0.076800846
38	0x3b1f67fb	0.0024323452
39	0x3d98fdd3	0.07470288
40	0xbda8b958	-0.082384765
41	0xbd99198b	-0.07475575
42	0x3db0565c	0.08610222
43	0x3d16795e	0.03673684
44	0xbd5473c3	-0.05186821
45	0xbd1cd7b5	-0.03829165
46	0x3dab1b25	0.08354787
47	0x3db45a27	0.08806258
48	0x3d0822a0	0.033236146
49	0x3dab8401	0.08374787
50	0x3cd7e0ad	0.026352251
51	0x3c3a552d	0.011372847
52	0xbcc3eb0e	-0.023915794
53	0x3da1788a	0.07884319
54	0x3da94a60	0.08266139
55	0x3d6cdf86	0.057830356
56	0x3d1c7a11	0.03820235
57	0x3b6678f5	0.003516731
58	0xbd8b2fc3	-0.06796219
59	0xbd9d9a26	-0.07695417
60	0xbd4cb6c8	-0.049979
61	0x3d951af6	0.07280533
62	0xbcb1189a	-0.021618176
63	0xbd0f3343	-0.034960996

layer2.1.weight f4 [64]
0	0x3f85d7d9	1.0456496
1	0x3f817986	1.0115211
2	0x3f855ef5	1.0419604
3	0x3f85fdd1	1.0468084
4	0x3f812fb4	1.0092683
5	0x3f8134b0	1.0094204
6	0x3f85363b	1.0407175
7	0x3f7e1137	0.9924502
8	0x3f853bc8	1.0408869
9	0x3f844d10	1.0336018
10	0x3f852b8d	1.0403916
11	0x3f812c0b	1.0091566
12	0x3f84698b	1.0344709
13	0x3f81ab4d	1.0130402
14	0x3f84aaef	1.0364665
15	0x3f824a19	1.0178863
16	0x3f85b622	1.0446208
17	0x3f806f06	1.0033882
18	0x3f85cc84	1.0453038
19	0x3f84d6b6	1.0378025
20	0x3f809c49	1.0047694
21	0x3f84c5ce	1.0372865
22	0x3f859671	1.0436536
23	0x3f858e59	1.0434066
24	0x3f814134	1.0098023
25	0x3f85d225	1.0454756
26	0x3f7f13d2	0.9963962
27	0x3f861e18	1.0477934
28	0x3f82876a	1.0197575
29	0x3f7eea9f	0.99576753
30	0x3f85bbf6	1.0447986
31	0x3f850161	1.0391046
32	0x3f84cc51	1.0374852
33	0x3f7b0036	0.98047197
34	0x3f81d717	1.0143765
35	0x3f831fa2	1.0244029
36	0x3f831285	1.0240027
37	0x3f858a7b	1.0432886
38	0x3f7e9b12	0.9945537
39	0x3f84b3a2	1.036732
40	0x3f82cc52	1.0218604
41	0x3f8488a1	1.0354196
42	0x3f84a7a4	1.036366
43	0x3f847735	1.0348879
44	0x3f834799	1.0256225
45	0x3f816084	1.0107579
46	0x3f858c2c	1.0433402
47	0x3f7d2d36	0.9889711
48	0x3f8316fa	1.0241387
49	0x3f84683a	1.0344307
50	0x3f863ed4	1.0487924
51	0x3f7d1058	0.98853064
52	0x3f80a244	1.004952
53	0x3f8372c4	1.0269399
54	0x3f7ef166	0.99587095
55	0x3f83859c	1.0275149
56	0x3f8403fd	1.0313717
57	0x3f8462c0	1.0342636
58	0x3f849d33	1.0360473
59	0x3f854706	1.04123
60	0x3f804660	1.0021477
61	0x3f815602	1.0104373
62	0x3f85a8e0	1.0442162
63	0x3f859b04	1.0437932

layer2.1.bias f4 [64]
0	0x3ce42ee6	0.027854394
1	0x3c281074	0.010257829
2	0x3d140cfd	0.0361452
3	0x3d21c639	0.03949568
4	0xbb507f70	-0.003181424
5	0xbc169786	-0.009191399
6	0x3d01bfe3	0.031677138
7	0xba9818e2	-0.0011604095
8	0x3cbc490a	0.022984046
9	0x3d1743f8	0.036930054
10	0x3c57de3a	0.013175542
11	0x3c7e12ac	0.015507381
12	0x3cff14bc	0.031137817
13	0x3be50713	0.0069893687
14	0x3d137f4a	0.036010064
15	0x3c9301f1	0.017945262
16	0x3d17a983	0.037026893
17	0x3b677293	0.0035316094
18	0x3d175b96	0.036952578
19	0x3d036a4c	0.032083794
20	0xbb82b478	-0.0039887987
21	0x3cda73a2	0.026666466
22	0x3d174191	0.036927763
23	0x3d107c42	0.03527475
24	0x3cceb1b4	0.02523122
25	0x3d2c63a4	0.042087212
26	0xbca976a8	-0.020686463
27	0x3d0af681	0.03392649
28	0x3c839eee	0.016066995
29	0x3c161ef0	0.0091626495
30	0x3d279571	0.040914003
31	0x3d1d6941	0.038430456
32	0x3d2284cb	0.039677422
33	0xbc534fb0	-0.012897417
34	0x3c88e723	0.016711777
35	0x3cf52135	0.02992306
36	0x3d0434c2	0.032276876
37	0x3ce85a07	0.02836324
38	0x3b199dfa	0.0023440109
39	0x3cf0cea4	0.029395409
40	0x3c8df7a8	0.017330006
41	0x3d173bcd	0.036922265
42	0x3d012ba1	0.03153575
43	0x3cb34efc	0.021888249
44	0x3cebcef1	0.0287852
45	0x3a445179	0.0007488947
46	0x3cfcae48	0.030844823
47	0xb9b4e51a	-0.0003450297
48	0x3b48aef0	0.003062185
49	0x3d0f33d0	0.03496152
50	0x3d1ce1f0	0.03830141
51	0xbc6484dd	-0.013947693
52	0xbc1b4b14	-0.009478349
53	0x3d1455fd	0.036214817
54	0xbbd885f8	-0.006607767
55	0x3c5019c3	0.012701455
56	0x3c9c297c	0.01906275
57	0x3d381e70	0.044950902
58	0x3c918876	0.017765265
59	0x3d163086	0.03666737
60	0xbca26d64	-0.019827552
61	0x3bfdc1a8	0.007744033
62	0x3d0610b1	0.032730762
63	0x3d2f011e	0.042725675

layer2.1.running_mean f4 [64]
0	0x3dd8e4f6	0.10590546
1	0xbd13229c	-0.035921678
2	0xbd7b01ba	-0.061280943
3	0x3d8cd6b8	0.06876892
4	0xbe11471d	-0.14187284
5	0x3e2d3164	0.16913372
6	0xbe6e3638	-0.2326287
7	0x3e98052f	0.29691455
8	0xbe4dfe93	-0.20116644
9	0x3e117088	0.14203084
10	0x3ea70857	0.3262355
11	0x3d6b9c28	0.05752197
12	0x3e9efc57	0.31051895
13	0x3d69909f	0.057022687
14	0x3c9d7561	0.01922101
15	0x3e1a8075	0.15088065
16	0xbe5aa8df	-0.21353482
17	0x3e2c9002	0.1685181
18	0xbe0cd150	-0.13751721
19	0xbd9bd261	-0.07608486
20	0x3ca4a773	0.020099377
21	0xbd8da905	-0.069170035
22	0xbe231cce	-0.15928957
23	0xbed027d6	-0.40655392
24	0xbe0dcc64	-0.138475
25	0xbcbee33d	-0.023301715
26	0x3c1a5e63	0.009421918
27	0x3d4c60f1	0.049897138
28	0xbd042ad6	-0.032267414
29	0xbe1ba926	-0.15201244
30	0x3ed26eb0	0.41100073
31	0x3e1cc3fa	0.15309134
32	0xbea75bd5	-0.3268725
33	0xbec27e00	-0.37986755
34	0xbde72f5d	-0.11288331
35	0xbeca1ffe	-0.39477533
36	0xbebfdd11	-0.37473348
37	0xbea984fc	-0.33109272
38	0xbe239809	-0.15975966
39	0x3eb9d98f	0.36298797
40	0xbe3a3f0c	-0.18188113
41	0x3eb25c2e	0.34835953
42	0xbe2a3c0d	-0.1662447
43	0x3df33785	0.11875824
44	0xbe3c661d	-0.18398328
45	0x3c9679f0	0.018368691
46	0xbdc96dc3	-0.098353885
47	0x3cd1f0d9	0.02562754
48	0xbe8adca1	-0.27121451
49	0xbdb2aead	-0.08724723
50	0x3d223fbd	0.039611567
51	0x3e584b89	0.21122564
52	0x3ed0c8e2	0.4077826
53	0x3db29264	0.08719328
54	0x3d0965c7	0.033544328
55	0x3f1220b7	0.5708117
56	0xbdacc370	-0.08435714
57	0xbdc43e77	-0.09582227
58	0xbde23b58	-0.11046475
59	0xbdd9dd5d	-0.10637925
60	0x3ef61c95	0.4806868
61	0xbe77ed05	-0.2421151
62	0xbd4205ad	-0.047368694
63	0x3e70d15d	0.23517366

layer2.1.running_var f4 [64]
0	0x3e5ce765	0.21572645
1	0x3eb8ed76	0.36118668
2	0x3e783b4d	0.24241371
3	0x3e80efdf	0.25183007
4	0x3e314084	0.17309767
5	0x3ed77438	0.42080855
6	0x3e86c64d	0.26323166
7	0x3e7445b2	0.23854712
8	0x3e7c3612	0.24630001
9	0x3e502903	0.20328145
10	0x3e83e049	0.25757053
11	0x3eb76203	0.35816965
12	0x3e23d931	0.1600082
13	0x3e692b82	0.22770503
14	0x3e649dc4	0.22325808
15	0x3ec65568	0.38737035
16	0x3e64baae	0.22336838
17	0x3e389428	0.18025267
18	0x3e717b99	0.23582305
19	0x3ea6b20a	0.32557708
20	0x3eba646e	0.36404747
21	0x3e5bc7d6	0.2146295
22	0x3e5f56e8	0.21810496
23	0x3e93d25c	0.2887143
24	0x3e0e940d	0.13923664
25	0x3e725ee8	0.23669016
26	0x3e9181b8	0.2841928
27	0x3e3b33e4	0.18281513
28	0x3e6afa6b	0.2294709
29	0x3f389d9f	0.7211551
30	0x3e836a53	0.25667056
31	0x3e7ae07e	0.244997
32	0x3e67c581	0.22633936
33	0x3e5c036f	0.21485685
34	0x3e87cdaa	0.26524097
35	0x3e6ab84e	0.22921869
36	0x3f5a5550	0.85286427
37	0x3ee0b692	0.4388929
38	0x3ec83241	0.3910084
39	0x3e280c08	0.1641084
40	0x3e494570	0.19655395
41	0x3eba2b52	0.36361176
42	0x3e9f4f19	0.31115034
43	0x3e22706c	0.15863198
44	0x3e755253	0.23957185
45	0x3e8dbfa4	0.27685273
46	0x3e958905	0.292061
47	0x3f6db9eb	0.92861813
48	0x3ebc799e	0.36811537
49	0x3e036ed1	0.12835242
50	0x3e76a46d	0.24086161
51	0x3e955578	0.2916677
52	0x3f1e997f	0.61952966
53	0x3e4b67ca	0.19863811
54	0x3e3a919c	0.18219608
55	0x3e9b9de4	0.30393898
56	0x3e836ea5	0.25670353
57	0x3eb7cd12	0.35898644
58	0x3e9986bf	0.29985616
59	0x3e392599	0.18080749
60	0x3f1f2eb6	0.6218065
61	0x3e67688f	0.2259848
62	0x3e589da8	0.21153891
63	0x3ed2e8c9	0.41193226

layer3.weight f4 [4, 64]
0	0xbd68460f	-0.056707438
1	0x3de86c45	0.11348776
2	0x3e11ba03	0.14231114
3	0x3ca6ed35	0.020376781
4	0xbd9c3695	-0.07627598
5	0x3df74c21	0.12075067
6	0x3daa41bd	0.0831332
7	0xbde9ae53	-0.11410203
8	0xbe10d59b	-0.14143984
9	0x3d864693	0.0655643
10	0xbdda9e92	-0.10674776
11	0xbdeec745	-0.116591014
12	0x3ceccb46	0.028905522
13	0x3dd82fa9	0.105559655
14	0x3d143a04	0.03618814
15	0x3dd49e6c	0.10381779
16	0x3d498477	0.049198594
17	0x3cc850ee	0.024452653
18	0x3ca39fee	0.019973721
19	0x3e1d6e81	0.15374185
20	0xbdcd2c12	-0.10018171
21	0xbd1c8d65	-0.03822078
22	0x3e02d31b	0.12775843
23	0x3d7feabd	0.062479723
24	0x3d99389e	0.07481502
25	0xbdfb53c2	-0.12271835
26	0xbd9b9377	-0.07596486
27	0x3d46817d	0.048463333
28	0xbe2043e6	-0.15650901
29	0x3c22311f	0.009899407
30	0x3dd2a451	0.10285247
31	0x3d932d31	0.07186354
32	0xbd823d97	-0.063594036
33	0x3d1fce70	0.039015234
34	0xbdf795a2	-0.12089087
35	0xbd6adf55	-0.057341892
36	0x3db878c4	0.09007409
37	0x3c810dcf	0.015753655
38	0xbd93e5e1	-0.0722158
39	0x3dd5c29a	0.10437508
40	0xbc6246c6	-0.013810819
41	0x3e162f3d	0.14666457
42	0xbd1384a9	-0.036015186
43	0x3dedd8f8	0.11613649
44	0x3db14f99	0.0865776
45	0xbda26eba	-0.07931276
46	0x3e10d0b2	0.14142111
47	0x3d88d59f	0.0668137
48	0xbe0509f6	-0.12992081
49	0x3dbd7420	0.09250665
50	0xbd910478	-0.070809305
51	0xbd00811a	-0.03137312
52	0xbb431730	-0.002976846
53	0xbd914474	-0.070931345
54	0xbdb6ed74	-0.08932009
55	0x3d156ae2	0.036478885
56	0x3d96dca8	0.073663056
57	0xbe00c2e3	-0.12574343
58	0x3e0e2a8d	0.1388342
59	0x3d6cd047	0.057815816
60	0x3d704a8a	0.058664836
61	0xbddfefb7	-0.10934394
62	0x3d8e799e	0.069567904
63	0xbda7e4da	-0.08197947
64	0x3d37e0ba	0.04489205
65	0x3d88d816	0.0668184
66	0x3de94f86	0.11392121
67	0xbbae2aef	-0.0053151767
68	0xbba8df0f	-0.005153544
69	0xbdb34855	-0.087540306
70	0x3cdd01dc	0.026978426
71	0xbc823e6e	-0.01589891
72	0xbd96d3b7	-0.073646
73	0x3bca337d	0.0061706887
74	0xbd33b77e	-0.043876164
75	0xbc85ca69	-0.016331868
76	0xbdf70959	-0.1206233
77	0x3d8cf966	0.068835065
78	0x3d55fc33	0.05224247
79	0xbb842ed7	-0.004033904
80	0xbc8b8c0f	-0.017034559
81	0xbc05e2e2	-0.008171769
82	0x3c80b541	0.015711429
83	0x3cac8cee	0.021063294
84	0x3d23224f	0.03982764
85	0xbd2db778	-0.042411298
86	0xbd079e7a	-0.03311012
87	0xbd94d466	-0.07267074
88	0x3ddce6aa	0.10786183
89	0xbe0e98bd	-0.13925453
90	0x3c4351f6	0.0119213965
91	0xba790438	-0.0009499225
92	0x3dcfb74e	0.101423845
93	0xbd9e7419	-0.077369876
94	0x3e07afba	0.13250628
95	0xbc999228	-0.01874645
96	0xbe256660	-0.16152334
97	0x3d15a05a	0.036529876
98	0xbc89d721	-0.016826214
99	0xbdf5292c	-0.119707435
100	0xbc0c63a1	-0.008568675
101	0xbc1f6b06	-0.009730106
102	0xbde59ee9	-0.1121195
103	0xbd4033c4	-0.046924368
104	0x3dd8e709	0.105909415
105	0xbe03663b	-0.12831967
106	0x3e1752bd	0.14777656
107	0x3d8d691f	0.06904816
108	0xbceb3683	-0.028712517
109	0x3e02e0a8	0.12781012
110	0xbd0b2c69	-0.0339779
111	0x3dc3d3ea	0.09561904
112	0x3ae4d5f2	0.001745878
113	0xbd473328	-0.04863277
114	0x3cf2ead8	0.029652998
115	0xbd971f84	-0.07379058
116	0xbdf73c2d	-0.120720245
117	0x3c155688	0.009114869
118	0x3cba0dbe	0.02271163
119	0xbdd31d54	-0.10308328
120	0x3dc0d141	0.09414912
121	0xbd4a7fc7	-0.049438264
122	0x3dd9a387	0.106268935
123	0x3d9e085b	0.077164374
124	0xbe0e0d7b	-0.1387233
125	0xbdcebece	-0.10094987
126	0x3b9c4e46	0.004770073
127	0xbd9e00ef	-0.07715022
128	0x3d541392	0.051776476
129	0xbdcd12a0	-0.10013318
130	0x3cce2ec6	0.025168788
131	0xbdaf0582	-0.085459724
132	0xbd115655	-0.035482723
133	0x3db056cc	0.08610305
134	0xbcd4d28d	-0.025979305
135	0xbcbc0afb	-0.022954455
136	0xbddc9e9b	-0.10772439
137	0x3ddb59eb	0.1071051
138	0x3b7123f8	0.003679512
139	0x3da28e38	0.07937282
140	0xbe116a7c	-0.14200777
141	0xbd4754c7	-0.048664834
142	0xbdff06c3	-0.124524616
143	0x3d758cd2	0.05994875
144	0xbcbf9659	-0.023387121
145	0x3cf39c59	0.029737638
146	0xbd9aec6b	-0.075646244
147	0xbd543497	-0.051807966
148	0x3de3314c	0.11093387
149	0x3d247b70	0.04015678
150	0x3d1b33d5	0.037891228
151	0xbe136413	-0.14393644
152	0xbc3e97b0	-0.011632845
153	0x3c5e48e8	0.013567187
154	0xbd99da2f	-0.07512318
155	0x3c7075ee	0.014676554
156	0x3da7d64b	0.0819517
157	0x3d889b8f	0.066702954
158	0xbddad0b2	-0.10684337
159	0xbe183a9e	-0.1486611
160	0x3d8f79ef	0.07005679
161	0x3d0e9aad	0.03481548
162	0x3dff8a0a	0.12477501
163	0x3e0a891a	0.13528863
164	0x3d51c2c8	0.05121115
165	0xbda11c5b	-0.078667365
166	0x3dc2b7e1	0.09507728
167	0xbe0081ec	-0.12549561
168	0xbd17f4b8	-0.037098616
169	0xbdf3c94e	-0.1190363
170	0xbdc9f9b4	-0.0986208
171	0xbcb3ec06	-0.02196313
172	0x3dfd5857	0.12370365
173	0x3d8f00f9	0.069826074
174	0xbe057b7c	-0.13035387
175	0xbba6314b	-0.005071794
176	0x3d201f6d	0.03909247
177	0x3e06a053	0.13147096
178	0xbe25e477	-0.16200434
179	0x3dc6afde	0.09701513
180	0x3d930a9c	0.07179758
181	0xbd78f85a	-0.06078372
182	0xbe161ae3	-0.14658694
183	0x3d14f574	0.036366895
184	0xbd5faa75	-0.05460592
185	0x3dcd9fa4	0.10040215
186	0xbe0777bd	-0.1322927
187	0xbdf1cac2	-0.11806251
188	0x3d9376e7	0.07200413
189	0x3d0f151c	0.03493224
190	0x3dedf854	0.116196305
191	0x3d3094d4	0.043110684
192	0xbdefcd76	-0.117091104
193	0x3c325984	0.0108856
194	0xbd8f497f	-0.0699644
195	0xbe1933b4	-0.1496113
196	0x3d992859	0.07478399
197	0xbcbd7934	-0.023129083
198	0xbca32759	-0.019916223
199	0x3c52790e	0.0128462445
200	0x3dd2bd0d	0.10289965
201	0x3dffdc8d	0.124932386
202	0xbe174a21	-0.14774372
203	0xbce81384	-0.028329618
204	0x3ce2cec3	0.027686482
205	0xbde54da1	-0.11196447
206	0xbdb4a879	-0.08821196
207	0xbd7ef307	-0.062243488
208	0xbe0f588d	-0.13998623
209	0xbdcd7e36	-0.100338385
210	0xbde92062	-0.1138313
211	0xbdbe206d	-0.092835285
212	0x3cc4fbf4	0.024045922
213	0x3d834cfa	0.064111665
214	0xbd2e49db	-0.042550903
215	0xbe0d0082	-0.13769725
216	0x3e018a29	0.1265036
217	0x3dcef030	0.10104406
218	0x3d98edf3	0.0746726
219	0x3e0ffda9	0.14061607
220	0xbde290a7	-0.110627465
221	0x3dc63a15	0.09679047
222	0xbdba58b6	-0.090989515
223	0xbdf9c7c9	-0.12196309
224	0xbd0db744	-0.034598604
225	0xbccf8ce3	-0.025335735
226	0xbc1365c5	-0.008996432
227	0x3d3bceb4	0.045851424
228	0xbc6c850b	-0.014436017
229	0xbdbf6f55	-0.09347407
230	0x3d68bea9	0.056822453
231	0x3e23fb0d	0.16013737
232	0x3d2a44a6	0.041569375
233	0x3e06b4f8	0.13154972
234	0xbd37a54c	-0.044835374
235	0x3e00e40f	0.12586997
236	0xbbbece22	-0.005822913
237	0xbe118a52	-0.14212921
238	0xbd0be8c8	-0.034157544
239	0xb990234a	-0.00027492113
240	0x3db35f06	0.08758359
241	0xbc883d13	-0.016630685
242	0x3db090f0	0.08621395
243	0x3c28fdbb	0.0103144
244	0xbd7da0ba	-0.06192086
245	0x3d87c25f	0.0662887
246	0xbc5270d3	-0.012844282
247	0x3b3f5e85	0.0029200625
248	0xbe0488c8	-0.12942803
249	0x3da74d66	0.081690595
250	0xbd025762	-0.031821616
251	0x3da6d57a	0.08146186
252	0xbdd5788a	-0.104233816
253	0x3dde8924	0.10866001
254	0x3de05d20	0.10955262
255	0x3db5fcb1	0.08886088

layer3.bias f4 [4]
0	0xbdc6231d	-0.09674666
1	0xbbfc87fe	-0.007706641
2	0x3dcd621e	0.1002848
3	0x3e09a23e	0.13440797
